…
token punctuation\">)</span><span class=\"token punctuation\">)</span>\nmodel<span class=\"token punctuation\">.</span>summary<span class=\"token punctuation\">(</span><span class=\"token punctuation\">)</span></code></pre></div>\n<div class=\"gatsby-highlight\" data-language=\"text\"><pre class=\"language-text\"><code class=\"language-text\">Model: \"sequential_1\"\n_________________________________________________________________\n Layer (type)                Output Shape              Param #   \n=================================================================\n sequential (Sequential)     (32, 32, 32, 1)           0         \n                                                                 \n rescaling (Rescaling)       (32, 32, 32, 1)           0         \n                                                                 \n conv2d (Conv2D)             (32, 30, 30, 32)          320       \n                                                                 \n max_pooling2d (MaxPooling2D  (32, 15, 15, 32)         0         \n )                                                               \n                                                                 \n conv2d_1 (Conv2D)           (32, 13, 13, 64)          18496     \n                                                                 \n max_pooling2d_1 (MaxPooling  (32, 6, 6, 64)           0         \n 2D)                                                             \n                                                                 \n dropout (Dropout)           (32, 6, 6, 64)            0         \n                                                                 \n flatten (Flatten)           (32, 2304)                0         \n                                                                 \n dense (Dense)               (32, 128)                 295040    \n                                                                 \n dense_1 (Dense)             (32, 10)                  1290      \n                                                                 \n=================================================================\nTotal params: 315,146\nTrainable params: 315,146\nNon-trainable params: 0\n_________________________________________________________________</code></pre></div>\n<div class=\"gatsby-highlight\" data-language=\"python\"><pre class=\"language-python\"><code cla
…
